…
/linkhome/rech/genimt01/uba22to/4DVARNN-DinAE/dinae_4dvarnn/mods/import_Datasets_OSE.py:105: RuntimeWarning: invalid value encountered in less
  ss            = np.sum( np.sum( np.sum( x_test < -100 , axis = -1) , axis = -1 ) , axis = -1)
....... # of test patches: 365 /365
... mean Tt = 0.006975
.... Test set shape     365x200x200
....... Generic model filename: modelNATL60_SSH_365_200_200
.... Test set shape     365x200x200x22
... (after normalization) mean Tt = -0.063796
Model_AE(
  (encoder): Encoder(
    (pool1): AvgPool2d(kernel_size=(4, 4), stride=(4, 4), padding=0)
    (conv1): ConstrainedConv2d(22, 40, kernel_size=(11, 11), stride=(1, 1), padding=(5, 5), bias=False)
    (conv2): Conv2d(40, 40, kernel_size=(1, 1), stride=(1, 1), bias=False)
    (resnet1): ResNetConv2d(
      (resnet): Sequential(
        (0): ResidualBlock(
          (conv1): Conv2d(40, 200, kernel_size=(1, 1), stride=(1, 1), bias=False)
          (conv2): Conv2d(200, 40, kernel_size=(1, 1), stride=(1, 1), bias=False)
        )
        (1): ResidualBlock(
          (conv1): Conv2d(40, 200, kernel_size=(1, 1), stride=(1, 1), bias=False)
          (conv2): Conv2d(200, 40, kernel_size=(1, 1), stride=(1, 1), bias=False)
        )
        (2): ResidualBlock(
          (conv1): Conv2d(40, 200, kernel_size=(1, 1), stride=(1, 1), bias=False)
          (conv2): Conv2d(200, 40, kernel_size=(1, 1), stride=(1, 1), bias=False)
        )
        (3): ResidualBlock(
          (conv1): Conv2d(40, 200, kernel_size=(1, 1), stride=(1, 1), bias=False)
          (conv2): Conv2d(200, 40, kernel_size=(1, 1), stride=(1, 1), bias=False)
        )
        (4): ResidualBlock(
          (conv1): Conv2d(40, 200, kernel_size=(1, 1), stride=(1, 1), bias=False)
          (conv2): Conv2d(200, 40, kernel_size=(1, 1), stride=(1, 1), bias=False)
        )
        (5): ResidualBlock(
          (conv1): Conv2d(40, 200, kernel_size=(1, 1), stride=(1, 1), bias=False)
          (conv2): Conv2d(200, 40, kernel_size=(1, 1), stride=(1, 1), bias=False)
        )
        (6): ResidualBlock(
          (conv1): Conv2d(40, 200, kernel_size=(1, 1), stride=(1, 1), bias=False)
          (conv2): Conv2d(200, 40, kernel_size=(1, 1), stride=(1, 1), bias=False)
        )
      )
    )
    (conv3): Conv2d(40, 11, kernel_size=(1, 1), stride=(1, 1), bias=False)
    (conv1Tr): ConvTranspose2d(11, 11, kernel_size=(4, 4), stride=(4, 4), bias=False)
    (conv4): Conv2d(11, 80, kernel_size=(3, 3), stride=(1, 1), padding=(1, 1), bias=False)
    (convF): Conv2d(80, 11, kernel_size=(3, 3), stride=(1, 1), padding=(1, 1), bias=False)
  )
  (decoder): Decoder()
)
Number of trainable parameters = 238296
... Training datashape    : (365, 22, 200, 200)
.... Device GPU: True
..... DinAE learning (initialisation): NBProj = 2 -- NGrad = 0
Optim type 1
... Number of GPUs: 1
..... Start learning AE model 2 FP/Grad 1
..... Update/initialize number of projections/Graditer in GradCOnvAE model # 2/0
…
