…
.... Load NATL60 SSH dataset (training data): /users/local/DATA/domain=GULFSTREAM/ref/NATL60-CJM165_GULFSTREAM_ssh_y2013.1y.nc
.... Load NATL60 OI SSH dataset (training data): /users/local/DATA/domain=GULFSTREAM/oi/ssh_NATL60_4nadir.nc
.... Load OI dataset (training data): /users/local/DATA/OSE/GULFSTREAM/training/ssh_alg_h2g_j2g_j2n_j3_s3a_duacs.nc
.... Load OI dataset (training data): /users/local/DATA/domain=GULFSTREAM/oi/ssh_NATL60_4nadir.nc
0.10399071074436733
Model_AE(
  (encoder): Encoder(
    (conv1): ConstrainedConv2d(22, 40, kernel_size=(11, 11), stride=(1, 1), padding=(5, 5), bias=False)
    (conv2): Conv2d(40, 40, kernel_size=(1, 1), stride=(1, 1), bias=False)
    (resnet1): ResNetConv2d(
      (resnet): Sequential(
        (0): ResidualBlock(
          (conv1): Conv2d(40, 200, kernel_size=(1, 1), stride=(1, 1), bias=False)
          (conv2): Conv2d(200, 40, kernel_size=(1, 1), stride=(1, 1), bias=False)
        )
        (1): ResidualBlock(
          (conv1): Conv2d(40, 200, kernel_size=(1, 1), stride=(1, 1), bias=False)
          (conv2): Conv2d(200, 40, kernel_size=(1, 1), stride=(1, 1), bias=False)
        )
        (2): ResidualBlock(
          (conv1): Conv2d(40, 200, kernel_size=(1, 1), stride=(1, 1), bias=False)
          (conv2): Conv2d(200, 40, kernel_size=(1, 1), stride=(1, 1), bias=False)
        )
        (3): ResidualBlock(
          (conv1): Conv2d(40, 200, kernel_size=(1, 1), stride=(1, 1), bias=False)
          (conv2): Conv2d(200, 40, kernel_size=(1, 1), stride=(1, 1), bias=False)
        )
        (4): ResidualBlock(
          (conv1): Conv2d(40, 200, kernel_size=(1, 1), stride=(1, 1), bias=False)
          (conv2): Conv2d(200, 40, kernel_size=(1, 1), stride=(1, 1), bias=False)
        )
        (5): ResidualBlock(
          (conv1): Conv2d(40, 200, kernel_size=(1, 1), stride=(1, 1), bias=False)
          (conv2): Conv2d(200, 40, kernel_size=(1, 1), stride=(1, 1), bias=False)
        )
        (6): ResidualBlock(
          (conv1): Conv2d(40, 200, kernel_size=(1, 1), stride=(1, 1), bias=False)
          (conv2): Conv2d(200, 40, kernel_size=(1, 1), stride=(1, 1), bias=False)
        )
      )
    )
    (conv3): Conv2d(40, 11, kernel_size=(1, 1), stride=(1, 1), bias=False)
    (conv4): Conv2d(11, 80, kernel_size=(3, 3), stride=(1, 1), padding=(1, 1), bias=False)
    (convF): Conv2d(80, 11, kernel_size=(3, 3), stride=(1, 1), padding=(1, 1), bias=False)
  )
  (decoder): Decoder()
)
Number of trainable parameters = 236360
... Training datashape    : (365, 22, 100, 100)
.... Device GPU: True
..... DinAE learning (initialisation): NBProj = 2 -- NGrad = 2
Optim type 1
... Number of GPUs: 1
..... Start learning AE model 2 FP/Grad 1
..... Update/initialize number of projections/Graditer in GradCOnvAE model # 2/2
…
